sinTry.onnx (onnx, 2333 bytes, 5 tensors)

0.bias f4 [20]
0	0x3f650e64	0.89475083
1	0xc0204f7b	-2.504851
2	0xbff7b473	-1.9351944
3	0x40023329	2.0343726
4	0x3f9373c8	1.1519709
5	0xbd03badb	-0.03216062
6	0xbed925e8	-0.42411733
7	0xbf77806c	-0.9668033
8	0xbf99f451	-1.2027684
9	0x3d5ad83d	0.053428877
10	0xbf229cb0	-0.63520336
11	0xbef9870b	-0.48735842
12	0x3fbb586a	1.4636357
13	0xbf15f753	-0.5858051
14	0xbeb4f0e0	-0.35340023
15	0xbf6e0644	-0.9297831
16	0xbf6b4b98	-0.9191222
17	0xbe499b38	-0.19688118
18	0x3e1800f6	0.14844117
19	0xbe91c094	-0.28467238

18 f4 [1, 20]
0	0xbe0f4e6b	-0.13994758
1	0x3eeed6ab	0.46648154
2	0x3f03f340	0.51543045
3	0xbef12c0c	-0.47103918
4	0xbf9689f3	-1.1760849
5	0xbef8157a	-0.48453885
6	0xbf231094	-0.6369717
7	0xbef072f4	-0.46962702
8	0xbf0c37b3	-0.5477249
9	0xbf3a8c69	-0.728705
10	0xbda0aac0	-0.07845068
11	0xbf2f536b	-0.6848666
12	0xbeb4deb4	-0.3532616
13	0xbfcfba56	-1.622874
14	0xbee08374	-0.4385029
15	0x3d038e40	0.032118082
16	0x3c856ec0	0.016288161
17	0xbe9cf084	-0.3065225
18	0xbfabab36	-1.3411624
19	0x3ea327ec	0.31866395

19 f4 [20, 20]
0	0xbea67745	-0.3251287
1	0xbeec2320	-0.46120548
2	0x3e9edcd4	0.31027853
3	0xbe14d5a2	-0.1453462
4	0xbf2402b6	-0.64066637
5	0xbe0e61bb	-0.13904469
6	0xbf0cdff6	-0.5502924
7	0x3ec2383d	0.3793353
8	0xbf0146a2	-0.504984
9	0x3d1c0712	0.03809268
10	0xbe8e2cc5	-0.2776853
11	0xbf2d4baf	-0.6769361
12	0xbf17f08a	-0.5935141
13	0x3e288e4e	0.16460535
14	0xbd04dd14	-0.0324374
15	0xbf964ebc	-1.1742778
16	0xbf43685a	-0.763311
17	0xbdfa6b6e	-0.12227522
18	0xbeff2259	-0.49830893
19	0xbf21ccee	-0.6320332
20	0xbe804d2d	-0.2505888
21	0xbf279595	-0.6546262
22	0x3e445879	0.19174375
23	0xbdec2eb1	-0.11532343
24	0xbeda97fd	-0.42694083
25	0xbe15fafa	-0.14646521
26	0xbf097e29	-0.5370813
27	0x3fea43f8	1.8301992
28	0xbf05eb1c	-0.52311873
29	0x3fae7b87	1.3631448
30	0xbda063b5	-0.078315176
31	0xbef52c10	-0.4788518
32	0xbd2ead40	-0.042645693
33	0x3d8dd8fc	0.06926152
34	0x3e030309	0.12794127
35	0xbee1b1f4	-0.4408108
36	0xbf451d1c	-0.7699754
37	0xbe286bd2	-0.1644738
38	0xbf31624a	-0.692906
39	0xbce28d20	-0.027655184
40	0xbeaf4934	-0.34235537
41	0xbf40b684	-0.75278497
42	0x3ec27a2c	0.37983835
43	0xbe014346	-0.12623319
44	0xbf149a02	-0.580475
45	0xbcb369b0	-0.021900982
46	0xbf4bfb53	-0.79680365
47	0x3eacd247	0.3375418
48	0xbefc20e6	-0.4924385
49	0x3f6a7aac	0.9159343
50	0xbe7c5bc9	-0.24644388
51	0xbf2156bc	-0.6302297
52	0xbf2f5e05	-0.6850284
53	0x3d9b4091	0.075806744
54	0xbe45d70c	-0.19320315
55	0xbf1a56f7	-0.6028895
56	0xbdb90616	-0.09034364
57	0xbe939496	-0.288243
58	0xbf2533ef	-0.6453237
59	0x3e0d3298	0.13788831
60	0x3f109dbc	0.56490684
61	0xbf44038b	-0.76567906
62	0xbfad3515	-1.3531824
63	0xbe1aefe8	-0.1513058
64	0xbe33741f	-0.17524765
65	0xbe542c39	-0.20719995
66	0xbe31b0a7	-0.17352544
67	0x3f7b8760	0.9825344
68	0xbdd33947	-0.10313659
69	0xbe911ac9	-0.28340748
70	0xbdb5fe75	-0.088864245
71	0xbe118d3e	-0.14214036
72	0xbea9fd89	-0.33201244
73	0xbf8ff892	-1.1247733
74	0xbf73c39d	-0.9522036
75	0x3f90e17d	1.1318814
76	0xbeec2cc1	-0.46127895
77	0x3f81f07b	1.0151514
78	0xbf0bb871	-0.5457831
79	0xbf0fd0d4	-0.5617802
80	0xbf630055	-0.8867238
81	0xbef3b856	-0.47601575
82	0xbf7b494a	-0.98158705
83	0xbd8cb096	-0.068696186
84	0x3def5154	0.11685434
85	0xbe08997f	-0.13339804
86	0x3c11969c	0.008886006
87	0xbfc5516f	-1.5415477
88	0xbddcc4e9	-0.10779745
89	0xbf000c1f	-0.50018495
90	0xb90f3aa3	-0.00013659387
91	0x3db4ec08	0.08834082
92	0xbd69b285	-0.057055015
93	0xbefd3990	-0.4945798
94	0xbf169392	-0.58818924
95	0x3d1830c3	0.037155878
96	0x3e41962a	0.1890494
97	0xbfcde29b	-1.608478
98	0x3e796e3d	0.24358459
99	0xbf2a88ef	-0.66615194
100	0xbe1fe0fe	-0.15613171
101	0xbedc143c	-0.42984188
102	0x3de3e8b3	0.11128368
103	0x3ca65780	0.020305395
104	0xbf1577a8	-0.58385706
105	0x3dc27688	0.09495264
106	0xbf0d973a	-0.5530888
107	0xbeaed78e	-0.3414883
108	0xbeeb675f	-0.45977303
109	0xbf85581c	-1.0417514
110	0xbeaa846c	-0.33304155
111	0xbeca1479	-0.39468744
112	0x3f3f426b	0.7471072
113	0x3dd517fc	0.10404965
114	0xbd9e3fc6	-0.077270076
115	0xbf169605	-0.5882266
116	0xbea78219	-0.32716444
117	0x3c11e050	0.008903578
118	0xbf45d25b	-0.772741
119	0xbf079200	-0.52957153
120	0x3d2b13c8	0.04176691
121	0x3d99a904	0.0750294
122	0xbd17dad4	-0.037073925
123	0xbe1c6426	-0.15272579
124	0xbdea6ac8	-0.11446148
125	0x3d1f2420	0.03885281
126	0x3dc92a64	0.098225385
127	0x3dd5f218	0.10446566
128	0x393d2400	0.00018037856
129	0xbe262936	-0.16226658
130	0x3bb8b280	0.0056365132
131	0x3d548c60	0.051891685
132	0x3d949a60	0.07256007
133	0x3d0dadd0	0.03458959
134	0xbdf4079a	-0.119155124
135	0x3e0b813c	0.13623518
136	0xbd8e1a94	-0.06938663
137	0xbbd1b6a0	-0.0063999444
138	0x3daa768c	0.08323392
139	0x3e05e11a	0.1307415
140	0x3dc8d42c	0.098060936
141	0x3e287282	0.16449931
142	0xbdebb3e0	-0.11508918
143	0xbc0956f0	-0.008382544
144	0xbe023499	-0.12715377
145	0x3e03141c	0.1280064
146	0x3d370498	0.044682115
147	0xbe01c732	-0.12673643
148	0x3e11e6b4	0.14248163
149	0x3e263ed2	0.16234902
150	0xbd38a0c0	-0.04507518
151	0x3d9b36c8	0.07578808
152	0xbc5eddf0	-0.013602719
153	0xbde46f30	-0.1115402
154	0x3dd5fe28	0.10448867
155	0xbe125652	-0.14290741
156	0x3d3da108	0.04629615
157	0x3d9b3bf4	0.075797945
158	0x3e026d7e	0.1273708
159	0xbd7ccf4c	-0.06172113
160	0x3f1a7c1b	0.6034562
161	0xbf437d7f	-0.76363367
162	0x3ec80443	0.3906575
163	0xbe5789fb	-0.21048729
164	0xbf02f1be	-0.5115012
165	0xbdbece0e	-0.093166456
166	0xbe2514ac	-0.16121167
167	0xbdb5cf3c	-0.088774174
168	0xbee309a8	-0.44343305
169	0xbe550cb7	-0.20805632
170	0x3ec1d430	0.378572
171	0xbf31e172	-0.6948463
172	0xbd8b71a6	-0.06808786
173	0x3eb62c5e	0.35580724
174	0x3ecc854f	0.39945456
175	0xbee0921f	-0.43861482
176	0x3e3b62e6	0.18299446
177	0x3f152c2a	0.58270514
178	0xbec47bea	-0.3837579
179	0x3d70e260	0.058809638
180	0x3c150354	0.009095032
181	0xbf3ce64b	-0.737889
182	0xbe366964	-0.17813641
183	0xbe2bfb4c	-0.16795081
184	0xbf1da463	-0.6157896
185	0xbd855114	-0.06509605
186	0xbece30d0	-0.40271616
187	0xbeb51700	-0.3536911
188	0xbf3a52bd	-0.727825
189	0xbf9327fb	-1.1496576
190	0xbe2225f7	-0.15834795
191	0xbf1c955c	-0.61165404
192	0x3ed857df	0.4225454
193	0x3e31986d	0.17343302
194	0x3d2750d4	0.040848568
195	0xbd8e960e	-0.069622144
196	0xbf39fa5f	-0.7264766
197	0x3e7dff81	0.24804498
198	0xbed87ea4	-0.4228412
199	0xbf1daf30	-0.6159544
200	0xbc538810	-0.012910858
201	0x3e58ec94	0.21183997
202	0x3db6faac	0.089345306
203	0x3decd674	0.11564341
204	0x3d5d6160	0.054047942
205	0x3e118d88	0.14214146
206	0xbd7cb37c	-0.061694607
207	0xbe386935	-0.18008883
208	0xbd97f3fe	-0.07419585
209	0xbd27b0c4	-0.04094006
210	0xbdc72ab6	-0.09724943
211	0x3e30ab88	0.17252934
212	0xbe3a867c	-0.18215364
213	0x3df03258	0.11728352
214	0xbdb6eed6	-0.08932273
215	0xbd65e704	-0.056128517
216	0x3d2dba08	0.04241374
217	0x3e15017c	0.14551347
218	0xbe3a6f45	-0.18206508
219	0xbdd1c169	-0.10241968
220	0xbf448686	-0.76767766
221	0xbf300eee	-0.6877278
222	0xbef8e7cb	-0.48614344
223	0xbe4cda12	-0.20005062
224	0x3f12e7bb	0.5738484
225	0xbe4371c4	-0.19086367
226	0x3f39e9d7	0.72622436
227	0x3e61cdb8	0.22051132
228	0x3f09134e	0.5354508
229	0x3d095a48	0.033533365
230	0xbeea41c5	-0.45753303
231	0xbddd9362	-0.10819127
232	0xbcc810d0	-0.02442208
233	0xbef3b370	-0.47597837
234	0xbf472863	-0.77796
235	0x3f2f44d5	0.68464404
236	0xbd86112c	-0.06546244
237	0x3ef465b1	0.47733834
238	0x3eeaf401	0.45889285
239	0xbb2901c0	-0.0025788397
240	0x3e91b9db	0.2846211
241	0xbef59105	-0.47962204
242	0xbed8d369	-0.42348793
243	0xbd594648	-0.05304554
244	0x3efeb0ef	0.49744365
245	0x3dce6c58	0.10079259
246	0x3d97320e	0.07382594
247	0x3f562df2	0.83663857
248	0x3e09c980	0.13455772
249	0xbf015631	-0.5052214
250	0xbedefa0d	-0.4355015
251	0x3df0028c	0.11719236
252	0xbf08d30e	-0.53447044
253	0xbd96c42f	-0.07361638
254	0xbf229f36	-0.63524187
255	0x3f8c941b	1.0982698

2.bias f4 [20]
0	0xbf27db7f	-0.655693
1	0xbf23b955	-0.6395467
2	0x3f8eab07	1.1145943
3	0xbdc5b7be	-0.09654187
4	0xbf1a88e6	-0.6036514
5	0xbd818328	-0.06323844
6	0xbd92486c	-0.071427196
7	0xbf34b704	-0.7059176
8	0xbf551282	-0.83231366
9	0xbfad8541	-1.3556291
10	0xbdc036df	-0.09385466
11	0xbf458758	-0.77159643
12	0xbf313b73	-0.6923134
13	0x3f27e4d0	0.65583515
14	0xbe24aee5	-0.16082342
15	0xbf89b0ce	-1.0757082
16	0xbf3d4584	-0.739342
17	0x3ef491e8	0.47767568
18	0xbf336ce1	-0.7008801
19	0xbea6c9ae	-0.32575744

20 f4 [20, 1]
0	0xbe5eb7bd	-0.21749778
1	0x3eeb8c4f	0.46005484
2	0xbeeab85b	-0.45843777
3	0xbd41ed54	-0.047345474
4	0xbed5103a	-0.41613942
5	0xbe64d05f	-0.22345112
6	0xbe2bb911	-0.16769816
7	0x3e5b979d	0.21444555
8	0xbee0ebca	-0.43929893
9	0x3f25abf9	0.64715534
10	0x3e6e3bc1	0.23264982
11	0xbee14370	-0.43996763
12	0x3ec19005	0.3780519
13	0xbe3714e1	-0.17879058
14	0x3c5bdadc	0.013418879
15	0xbee0e043	-0.43921098
16	0x3ee6ef28	0.45104337
17	0x3e97e62e	0.296678
18	0xbea63b3e	-0.32467073
19	0x3ea843ca	0.3286422
